…
  value: 4
n_steps:
  desc: null
  value: 5
gamma:
  desc: null
  value: 0.99
gae_lambda:
  desc: null
  value: 1.0
ent_coef:
  desc: null
  value: 0.0
vf_coef:
  desc: null
  value: 0.5
max_grad_norm:
  desc: null
  value: 0.5
normalize_advantage:
  desc: null
  value: 'False'
lr_schedule:
  desc: null
  value: <function constant_fn.<locals>.func at 0x7fdab7a86480>
rollout_buffer:
  desc: null
  value: <stable_baselines3.common.buffers.RolloutBuffer object at 0x7fdab9672610>
policy:
  desc: null
  value: "ActorCriticCnnPolicy(\n  (features_extractor): NatureCNN(\n    (cnn): Sequential(\n\
    \      (0): Conv2d(4, 32, kernel_size=(8, 8), stride=(4, 4))\n      (1): ReLU()\n\
    \      (2): Conv2d(32, 64, kernel_size=(4, 4), stride=(2, 2))\n      (3): ReLU()\n\
    \      (4): Conv2d(64, 64, kernel_size=(3, 3), stride=(1, 1))\n      (5): ReLU()\n\
    \      (6): Flatten(start_dim=1, end_dim=-1)\n    )\n    (linear): Sequential(\n\
    \      (0): Linear(in_features=3136, out_features=512, bias=True)\n      (1):\
    \ ReLU()\n    )\n  )\n  (pi_features_extractor): NatureCNN(\n    (cnn): Sequential(\n\
    \      (0): Conv2d(4, 32, kernel_size=(8, 8), stride=(4, 4))\n      (1): ReLU()\n\
    \      (2): Conv2d(32, 64, kernel_size=(4, 4), stride=(2, 2))\n      (3): ReLU()\n\
    \      (4): Conv2d(64, 64, kernel_size=(3, 3), stride=(1, 1))\n      (5): ReLU()\n\
    \      (6): Flatten(start_dim=1, end_dim=-1)\n    )\n    (linear): Sequential(\n\
    \      (0): Linear(in_features=3136, out_features=512, bias=True)\n      (1):\
    \ ReLU()\n    )\n  )\n  (vf_features_extractor): NatureCNN(\n    (cnn): Sequential(\n\
    \      (0): Conv2d(4, 32, kernel_size=(8, 8), stride=(4, 4))\n      (1): ReLU()\n\
    \      (2): Conv2d(32, 64, kernel_size=(4, 4), stride=(2, 2))\n      (3): ReLU()\n\
    \      (4): Conv2d(64, 64, kernel_size=(3, 3), stride=(1, 1))\n      (5): ReLU()\n\
    \      (6): Flatten(start_dim=1, end_dim=-1)\n    )\n    (linear): Sequential(\n\
    \      (0): Linear(in_features=3136, out_features=512, bias=True)\n      (1):\
    \ ReLU()\n    )\n  )\n  (mlp_extractor): MlpExtractor(\n    (policy_net): Sequential()\n\
    \    (value_net): Sequential()\n  )\n  (action_net): Linear(in_features=512, out_features=4,\
    \ bias=True)\n  (value_net): Linear(in_features=512, out_features=1, bias=True)\n\
    )"
_logger:
  desc: null
  value: <stable_baselines3.common.logger.Logger object at 0x7fdab7abe950>
